…
ctive=0.0, flipud=0.0, fliplr=0.5, bgr=0.0, mosaic=1.0, mixup=0.0, copy_paste=0.0, copy_paste_mode=flip, auto_augment=randaugment, erasing=0.4, crop_fraction=1.0, cfg=None, tracker=botsort.yaml, save_dir=runs/train/exp-faster_dw
Overriding model.yaml nc=80 with nc=2
WARNING ⚠️ no model scale passed. Assuming scale='n'.

                   from  n    params  module                                       arguments                     
  0                  -1  1   1368100  fasternet_t0                                 []                            
  1                  -1  1    215872  ultralytics.nn.modules.block.SPPF            [320, 256, 5]                 
  2                  -1  1         0  torch.nn.modules.upsampling.Upsample         [None, 2, 'nearest']          
  3             [-1, 3]  1         0  ultralytics.nn.modules.conv.Concat           [1]                           
  4                  -1  1    152320  ultralytics.nn.modules.block.C2f             [416, 128, 1]                 
  5                  -1  1         0  torch.nn.modules.upsampling.Upsample         [None, 2, 'nearest']          
  6             [-1, 2]  1         0  ultralytics.nn.modules.conv.Concat           [1]                           
  7                  -1  1     38272  ultralytics.nn.modules.block.C2f             [208, 64, 1]                  
  8                  -1  1     36992  ultralytics.nn.modules.conv.Conv             [64, 64, 3, 2]                
  9             [-1, 8]  1         0  ultralytics.nn.modules.conv.Concat           [1]                           
 10                  -1  1    123648  ultralytics.nn.modules.block.C2f             [192, 128, 1]                 
 11                  -1  1    147712  ultralytics.nn.modules.conv.Conv             [128, 128, 3, 2]              
 12             [-1, 5]  1         0  ultralytics.nn.modules.conv.Concat           [1]                           
 13                  -1  1    493056  ultralytics.nn.modules.block.C2f             [384, 256, 1]                 
 14        [11, 14, 17]  1    751702  ultralytics.nn.modules.head.Detect           [2, [64, 128, 256]]           
YOLOv8-fasternet summary: 279 layers, 3,327,674 parameters, 3,327,658 gradients, 8.6 GFLOPs

WARNING ⚠️ ClearML installed but not initialized correctly, not logging this run. It seems ClearML is not configured on this machine!
To get started with ClearML, setup your own 'clearml-server' or create a free account at https://app.clear.ml
Setup instructions can be found here: https://clear.ml/docs
…
